…
{\*\listoverridetable{\listoverride\listid1\listoverridecount0\ls1}}
\margl1440\margr1440\vieww35640\viewh19480\viewkind0
\deftab720
\pard\pardeftab720\partightenfactor0

\f0\fs24 \cf2 \cb3 \expnd0\expndtw0\kerning0
\outl0\strokewidth0 \strokec2 (60000, 28, 28)\
(10000, 28, 28)\
Model: "model"\
_________________________________________________________________\
Layer (type)                 Output Shape              Param #   \
=================================================================\
input_1 (InputLayer)         [(None, 28, 28, 1)]       0         \
_________________________________________________________________\
conv2d (Conv2D)              (None, 28, 28, 32)        320       \
_________________________________________________________________\
max_pooling2d (MaxPooling2D) (None, 14, 14, 32)        0         \
_________________________________________________________________\
conv2d_1 (Conv2D)            (None, 14, 14, 32)        9248      \
_________________________________________________________________\
max_pooling2d_1 (MaxPooling2 (None, 7, 7, 32)          0         \
_________________________________________________________________\
conv2d_transpose (Conv2DTran (None, 14, 14, 32)        9248      \
_________________________________________________________________\
conv2d_transpose_1 (Conv2DTr (None, 28, 28, 32)        9248      \
_________________________________________________________________\
conv2d_2 (Conv2D)            (None, 28, 28, 1)         289       \
=================================================================\
Total params: 28,353\
Trainable params: 28,353\
Non-trainable params: 0\
_________________________________________________________________\
Epoch 1/10\
2021-11-14 07:18:04.286875: I tensorflow/core/platform/cpu_feature_guard.cc:142] This TensorFlow binary is optimized with oneAPI Deep Neural Network Library (oneDNN) to use the following CPU instructions in performance-critical operations:  AVX2 FMA\
…
